Device: cuda:0
Model: LabelPropagation(
  (encoder): GINLayer(
    (gin_convs): ModuleList(
      (0-2): 3 x GINConv(nn=Sequential(
        (0): Linear(in_features=128, out_features=128, bias=True)
        (1): BatchNorm1d(128, eps=1e-05, momentum=0.1, affine=True, track_running_stats=True)
        (2): ReLU()
        (3): Linear(in_features=128, out_features=128, bias=True)
      ))
    )
    (norms): ModuleList(
      (0-2): 3 x BatchNorm1d(128, eps=1e-05, momentum=0.1, affine=True, track_running_stats=True)
    )
    (mlps): ModuleList(
      (0-2): 3 x Sequential(
        (0): Linear(in_features=128, out_features=128, bias=True)
        (1): BatchNorm1d(128, eps=1e-05, momentum=0.1, affine=True, track_running_stats=True)
        (2): ReLU()
        (3): Linear(in_features=128, out_features=128, bias=True)
      )
    )
  )
  (relation): GraphRelationNetwork(
    (block): GINLayer(
      (gin_convs): ModuleList(
        (0): GINConv(nn=Sequential(
          (0): Linear(in_features=128, out_features=64, bias=True)
          (1): BatchNorm1d(64, eps=1e-05, momentum=0.1, affine=True, track_running_stats=True)
          (2): ReLU()
          (3): Linear(in_features=64, out_features=64, bias=True)
        ))
        (1): GINConv(nn=Sequential(
          (0): Linear(in_features=64, out_features=64, bias=True)
          (1): BatchNorm1d(64, eps=1e-05, momentum=0.1, affine=True, track_running_stats=True)
          (2): ReLU()
          (3): Linear(in_features=64, out_features=32, bias=True)
        ))
      )
      (norms): ModuleList(
        (0): BatchNorm1d(64, eps=1e-05, momentum=0.1, affine=True, track_running_stats=True)
        (1): BatchNorm1d(32, eps=1e-05, momentum=0.1, affine=True, track_running_stats=True)
      )
      (mlps): ModuleList(
        (0): Sequential(
          (0): Linear(in_features=128, out_features=64, bias=True)
          (1): BatchNorm1d(64, eps=1e-05, momentum=0.1, affine=True, track_running_stats=True)
          (2): ReLU()
          (3): Linear(in_features=64, out_features=64, bias=True)
        )
        (1): Sequential(
          (0): Linear(in_features=64, out_features=64, bias=True)
          (1): BatchNorm1d(64, eps=1e-05, momentum=0.1, affine=True, track_running_stats=True)
          (2): ReLU()
          (3): Linear(in_features=64, out_features=32, bias=True)
        )
      )
    )
    (fc): Sequential(
      (0): Linear(in_features=32, out_features=16, bias=True)
      (1): ReLU()
      (2): Linear(in_features=16, out_features=1, bias=True)
    )
  )
)
Loss function: LabelPropagation(
  (encoder): GINLayer(
    (gin_convs): ModuleList(
      (0-2): 3 x GINConv(nn=Sequential(
        (0): Linear(in_features=128, out_features=128, bias=True)
        (1): BatchNorm1d(128, eps=1e-05, momentum=0.1, affine=True, track_running_stats=True)
        (2): ReLU()
        (3): Linear(in_features=128, out_features=128, bias=True)
      ))
    )
    (norms): ModuleList(
      (0-2): 3 x BatchNorm1d(128, eps=1e-05, momentum=0.1, affine=True, track_running_stats=True)
    )
    (mlps): ModuleList(
      (0-2): 3 x Sequential(
        (0): Linear(in_features=128, out_features=128, bias=True)
        (1): BatchNorm1d(128, eps=1e-05, momentum=0.1, affine=True, track_running_stats=True)
        (2): ReLU()
        (3): Linear(in_features=128, out_features=128, bias=True)
      )
    )
  )
  (relation): GraphRelationNetwork(
    (block): GINLayer(
      (gin_convs): ModuleList(
        (0): GINConv(nn=Sequential(
          (0): Linear(in_features=128, out_features=64, bias=True)
          (1): BatchNorm1d(64, eps=1e-05, momentum=0.1, affine=True, track_running_stats=True)
          (2): ReLU()
          (3): Linear(in_features=64, out_features=64, bias=True)
        ))
        (1): GINConv(nn=Sequential(
          (0): Linear(in_features=64, out_features=64, bias=True)
          (1): BatchNorm1d(64, eps=1e-05, momentum=0.1, affine=True, track_running_stats=True)
          (2): ReLU()
          (3): Linear(in_features=64, out_features=32, bias=True)
        ))
      )
      (norms): ModuleList(
        (0): BatchNorm1d(64, eps=1e-05, momentum=0.1, affine=True, track_running_stats=True)
        (1): BatchNorm1d(32, eps=1e-05, momentum=0.1, affine=True, track_running_stats=True)
      )
      (mlps): ModuleList(
        (0): Sequential(
          (0): Linear(in_features=128, out_features=64, bias=True)
          (1): BatchNorm1d(64, eps=1e-05, momentum=0.1, affine=True, track_running_stats=True)
          (2): ReLU()
          (3): Linear(in_features=64, out_features=64, bias=True)
        )
        (1): Sequential(
          (0): Linear(in_features=64, out_features=64, bias=True)
          (1): BatchNorm1d(64, eps=1e-05, momentum=0.1, affine=True, track_running_stats=True)
          (2): ReLU()
          (3): Linear(in_features=64, out_features=32, bias=True)
        )
      )
    )
    (fc): Sequential(
      (0): Linear(in_features=32, out_features=16, bias=True)
      (1): ReLU()
      (2): Linear(in_features=16, out_features=1, bias=True)
    )
  )
)
Optimizer: Adam (
Parameter Group 0
    amsgrad: False
    betas: (0.9, 0.999)
    capturable: False
    differentiable: False
    eps: 1e-08
    foreach: None
    fused: None
    lr: 0.001
    maximize: False
    weight_decay: 0
)
Start training...
Epoch 1/200: Avg Train Loss: 1.6978, Avg Train Acc: 0.7636 (Best)
Epoch 1/200: Avg Val Loss: 1.6961, Avg Val Acc: 0.7884 (Best)
…
