Device: cuda:0
Model: RelationNetwork(
  (encoder): GCN(
    (gcn_convs): ModuleList(
      (0): GCNConv(128, 256)
      (1-2): 2 x GCNConv(256, 256)
    )
    (norms): ModuleList(
      (0-2): 3 x BatchNorm1d(256, eps=1e-05, momentum=0.1, affine=True, track_running_stats=True)
    )
    (output_proj): Sequential(
      (0): Linear(in_features=256, out_features=128, bias=True)
      (1): BatchNorm1d(128, eps=1e-05, momentum=0.1, affine=True, track_running_stats=True)
      (2): ReLU()
    )
  )
  (relation): MLPRelationModule(
    (fc): Sequential(
      (0): Linear(in_features=256, out_features=128, bias=True)
      (1): ReLU()
      (2): Dropout(p=0.2, inplace=False)
      (3): Linear(in_features=128, out_features=64, bias=True)
      (4): ReLU()
      (5): Dropout(p=0.2, inplace=False)
      (6): Linear(in_features=64, out_features=1, bias=True)
    )
  )
  (ce): CrossEntropyLoss()
)
Loss function: RelationNetwork(
  (encoder): GCN(
    (gcn_convs): ModuleList(
      (0): GCNConv(128, 256)
      (1-2): 2 x GCNConv(256, 256)
    )
    (norms): ModuleList(
      (0-2): 3 x BatchNorm1d(256, eps=1e-05, momentum=0.1, affine=True, track_running_stats=True)
    )
    (output_proj): Sequential(
      (0): Linear(in_features=256, out_features=128, bias=True)
      (1): BatchNorm1d(128, eps=1e-05, momentum=0.1, affine=True, track_running_stats=True)
      (2): ReLU()
    )
  )
  (relation): MLPRelationModule(
    (fc): Sequential(
      (0): Linear(in_features=256, out_features=128, bias=True)
      (1): ReLU()
      (2): Dropout(p=0.2, inplace=False)
      (3): Linear(in_features=128, out_features=64, bias=True)
      (4): ReLU()
      (5): Dropout(p=0.2, inplace=False)
      (6): Linear(in_features=64, out_features=1, bias=True)
    )
  )
  (ce): CrossEntropyLoss()
)
Optimizer: Adam (
Parameter Group 0
    amsgrad: False
    betas: (0.9, 0.999)
    capturable: False
    differentiable: False
    eps: 1e-08
    foreach: None
    fused: None
    lr: 0.001
    maximize: False
    weight_decay: 0
)
Start training...
Epoch 1/200: Avg Train Loss: 1.1078, Avg Train Acc: 0.5686 (Best)
Epoch 1/200: Avg Val Loss: 1.0864, Avg Val Acc: 0.5898 (Best)
…
