Device: cuda:1
Model: LabelPropagation(
  (encoder): GCNLayer(
    (gcn_convs): ModuleList(
      (0): GCNConv(128, 256)
      (1): GCNConv(256, 256)
      (2): GCNConv(256, 128)
    )
    (norms): ModuleList(
      (0-1): 2 x BatchNorm1d(256, eps=1e-05, momentum=0.1, affine=True, track_running_stats=True)
      (2): BatchNorm1d(128, eps=1e-05, momentum=0.1, affine=True, track_running_stats=True)
    )
  )
  (relation): GraphRelationNetwork(
    (block): GCNLayer(
      (gcn_convs): ModuleList(
        (0): GCNConv(128, 64)
        (1): GCNConv(64, 32)
      )
      (norms): ModuleList(
        (0): BatchNorm1d(64, eps=1e-05, momentum=0.1, affine=True, track_running_stats=True)
        (1): BatchNorm1d(32, eps=1e-05, momentum=0.1, affine=True, track_running_stats=True)
      )
    )
    (fc): Sequential(
      (0): Linear(in_features=32, out_features=16, bias=True)
      (1): ReLU()
      (2): Linear(in_features=16, out_features=1, bias=True)
    )
  )
)
Loss function: LabelPropagation(
  (encoder): GCNLayer(
    (gcn_convs): ModuleList(
      (0): GCNConv(128, 256)
      (1): GCNConv(256, 256)
      (2): GCNConv(256, 128)
    )
    (norms): ModuleList(
      (0-1): 2 x BatchNorm1d(256, eps=1e-05, momentum=0.1, affine=True, track_running_stats=True)
      (2): BatchNorm1d(128, eps=1e-05, momentum=0.1, affine=True, track_running_stats=True)
    )
  )
  (relation): GraphRelationNetwork(
    (block): GCNLayer(
      (gcn_convs): ModuleList(
        (0): GCNConv(128, 64)
        (1): GCNConv(64, 32)
      )
      (norms): ModuleList(
        (0): BatchNorm1d(64, eps=1e-05, momentum=0.1, affine=True, track_running_stats=True)
        (1): BatchNorm1d(32, eps=1e-05, momentum=0.1, affine=True, track_running_stats=True)
      )
    )
    (fc): Sequential(
      (0): Linear(in_features=32, out_features=16, bias=True)
      (1): ReLU()
      (2): Linear(in_features=16, out_features=1, bias=True)
    )
  )
)
Optimizer: Adam (
Parameter Group 0
    amsgrad: False
    betas: (0.9, 0.999)
    capturable: False
    differentiable: False
    eps: 1e-08
    foreach: None
    fused: None
    lr: 0.001
    maximize: False
    weight_decay: 0
)
Start training...
Epoch 1/200: Avg Train Loss: 0.6426, Avg Train Acc: 0.1317 (Best)
Open-Set AUROC: 0.0806
Epoch 1/200: Avg Val Loss: 0.6453, Avg Val Acc: 0.1000 (Best)
…
